…
0, translate=0.1, scale=0.5, shear=0.0, perspective=0.0, flipud=0.0, fliplr=0.5, bgr=0.0, mosaic=1.0, mixup=0.0, copy_paste=0.0, copy_paste_mode=flip, auto_augment=randaugment, erasing=0.4, crop_fraction=1.0, cfg=None, tracker=botsort.yaml, save_dir=../outputs/training/MobleNet42
Overriding model.yaml nc=80 with nc=10
WARNING ⚠️ no model scale passed. Assuming scale='n'.

                   from  n    params  module                                       arguments                     
m_.i: 0, m_.f: -1, m_.type: ultralytics.nn.modules.conv.Conv
  0                  -1  1       464  ultralytics.nn.modules.conv.Conv             [3, 16, 3, 2]                 
m_.i: 1, m_.f: -1, m_.type: ultralytics.nn.modules.conv.Conv
  1                  -1  1      4672  ultralytics.nn.modules.conv.Conv             [16, 32, 3, 2]                
m_.i: 2, m_.f: -1, m_.type: ultralytics.nn.modules.block.C3k2
  2                  -1  1      6640  ultralytics.nn.modules.block.C3k2            [32, 64, 1, False, 0.25]      
m_.i: 3, m_.f: -1, m_.type: ultralytics.nn.modules.conv.Conv
  3                  -1  1     36992  ultralytics.nn.modules.conv.Conv             [64, 64, 3, 2]                
m_.i: 4, m_.f: -1, m_.type: ultralytics.nn.modules.block.C3k2
  4                  -1  1     26080  ultralytics.nn.modules.block.C3k2            [64, 128, 1, False, 0.25]     
m_.i: 5, m_.f: -1, m_.type: ultralytics.nn.modules.conv.Conv
  5                  -1  1    147712  ultralytics.nn.modules.conv.Conv             [128, 128, 3, 2]              
m_.i: 6, m_.f: -1, m_.type: ultralytics.nn.modules.block.C3k2
  6                  -1  1     87040  ultralytics.nn.modules.block.C3k2            [128, 128, 1, True]           
m_.i: 7, m_.f: -1, m_.type: ultralytics.nn.modules.conv.Conv
  7                  -1  1    295424  ultralytics.nn.modules.conv.Conv             [128, 256, 3, 2]              
m_.i: 8, m_.f: -1, m_.type: ultralytics.nn.modules.block.C3k2
  8                  -1  1    346112  ultralytics.nn.modules.block.C3k2            [256, 256, 1, True]           
m_.i: 9, m_.f: -1, m_.type: ultralytics.nn.modules.block.SPPF
  9                  -1  1    164608  ultralytics.nn.modules.block.SPPF            [256, 256, 5]                 
m_.i: 10, m_.f: -1, m_.type: ultralytics.nn.modules.block.C2PSA
 10                  -1  1    249728  ultralytics.nn.modules.block.C2PSA           [256, 256, 1]                 
m_.i: 11, m_.f: -1, m_.type: torch.nn.modules.upsampling.Upsample
 11                  -1  1         0  torch.nn.modules.upsampling.Upsample         [None, 2, 'nearest']          
m_.i: 12, m_.f: [-1, 6], m_.type: ultralytics.nn.modules.conv.Concat
 12             [-1, 6]  1         0  ultralytics.nn.modules.conv.Concat           [1]                           
m_.i: 13, m_.f: -1, m_.type: ultralytics.nn.modules.block.C3k2
 13                  -1  1    111296  ultralytics.nn.modules.block.C3k2            [384, 128, 1, False]          
m_.i: 14, m_.f: -1, m_.type: torch.nn.modules.upsampling.Upsample
 14                  -1  1         0  torch.nn.modules.upsampling.Upsample         [None, 2, 'nearest']          
m_.i: 15, m_.f: [-1, 4], m_.type: ultralytics.nn.modules.conv.Concat
 15             [-1, 4]  1         0  ultralytics.nn.modules.conv.Concat           [1]                           
m_.i: 16, m_.f: -1, m_.type: ultralytics.nn.modules.block.C3k2
 16                  -1  1     32096  ultralytics.nn.modules.block.C3k2            [256, 64, 1, False]           
m_.i: 17, m_.f: -1, m_.type: ultralytics.nn.modules.conv.Conv
 17                  -1  1     36992  ultralytics.nn.modules.conv.Conv             [64, 64, 3, 2]                
m_.i: 18, m_.f: [-1, 13], m_.type: ultralytics.nn.modules.conv.Concat
 18            [-1, 13]  1         0  ultralytics.nn.modules.conv.Concat           [1]                           
m_.i: 19, m_.f: -1, m_.type: ultralytics.nn.modules.block.C3k2
 19                  -1  1     86720  ultralytics.nn.modules.block.C3k2            [192, 128, 1, False]          
m_.i: 20, m_.f: -1, m_.type: ultralytics.nn.modules.conv.Conv
 20                  -1  1    147712  ultralytics.nn.modules.conv.Conv             [128, 128, 3, 2]              
m_.i: 21, m_.f: [-1, 10], m_.type: ultralytics.nn.modules.conv.Concat
 21            [-1, 10]  1         0  ultralytics.nn.modules.conv.Concat           [1]                           
m_.i: 22, m_.f: -1, m_.type: ultralytics.nn.modules.block.C3k2
 22                  -1  1    378880  ultralytics.nn.modules.block.C3k2            [384, 256, 1, True]           
f: [16, 19, 22], ch: [16, 32, 64, 64, 128, 128, 128, 256, 256, 256, 256, 256, 384, 128, 128, 256, 64, 64, 192, 128, 128, 384, 256]
m_.i: 23, m_.f: [16, 19, 22], m_.type: ultralytics.nn.modules.head.Detect
 23        [16, 19, 22]  1    432622  ultralytics.nn.modules.head.Detect           [10, [64, 128, 256]]          
YOLO11 summary: 319 layers, 2,591,790 parameters, 2,591,774 gradients, 6.5 GFLOPs

Freezing layer 'model.23.dfl.conv.weight'
[34m[1mAMP: [0mrunning Automatic Mixed Precision (AMP) checks with YOLO11n...
Traceback (most recent call last):
  File "/home/tsw96d/YOLOComparision/YOLO_thermal_small/test.py", line 7, in <module>
    results = model.train(data="/home/tsw96d/YOLOComparision/FLIR_v2.yaml", epochs=200, batch=64, project="../outputs/training", name = "MobleNet4") 
…
