…
augment, erasing=0.4, crop_fraction=1.0, cfg=None, tracker=botsort.yaml, save_dir=../outputs/training/MobleNet4
WARNING ⚠️ no model scale passed. Assuming scale='n'.

                   from  n    params  module                                       arguments                     
c2: [32, 64, 96, 128]
c2: [32, 64, 96, 128]
m_.i: 4, m_.f: -1, m_.type: MobileNetV4ConvSmall
  0                  -1  1   2493024  MobileNetV4ConvSmall                         []                            
m_.i: 5, m_.f: -1, m_.type: ultralytics.nn.modules.block.SPPF
  1                  -1  1     74368  ultralytics.nn.modules.block.SPPF            [128, 256, 5]                 
m_.i: 6, m_.f: -1, m_.type: ultralytics.nn.modules.block.PSA
  2                  -1  1    249728  ultralytics.nn.modules.block.PSA             [256, 256]                    
m_.i: 7, m_.f: -1, m_.type: torch.nn.modules.upsampling.Upsample
  3                  -1  1         0  torch.nn.modules.upsampling.Upsample         [None, 2, 'nearest']          
m_.i: 8, m_.f: [-1, 3], m_.type: ultralytics.nn.modules.conv.Concat
  4             [-1, 3]  1         0  ultralytics.nn.modules.conv.Concat           [1]                           
m_.i: 9, m_.f: -1, m_.type: ultralytics.nn.modules.block.C2f
  5                  -1  1    144128  ultralytics.nn.modules.block.C2f             [352, 128, 1]                 
m_.i: 10, m_.f: -1, m_.type: torch.nn.modules.upsampling.Upsample
  6                  -1  1         0  torch.nn.modules.upsampling.Upsample         [None, 2, 'nearest']          
m_.i: 11, m_.f: [-1, 2], m_.type: ultralytics.nn.modules.conv.Concat
  7             [-1, 2]  1         0  ultralytics.nn.modules.conv.Concat           [1]                           
m_.i: 12, m_.f: -1, m_.type: ultralytics.nn.modules.block.C2f
  8                  -1  1     37248  ultralytics.nn.modules.block.C2f             [192, 64, 1]                  
m_.i: 13, m_.f: -1, m_.type: ultralytics.nn.modules.conv.Conv
  9                  -1  1     36992  ultralytics.nn.modules.conv.Conv             [64, 64, 3, 2]                
m_.i: 14, m_.f: [-1, 9], m_.type: ultralytics.nn.modules.conv.Concat
 10             [-1, 9]  1         0  ultralytics.nn.modules.conv.Concat           [1]                           
m_.i: 15, m_.f: -1, m_.type: ultralytics.nn.modules.block.C2f
 11                  -1  1    123648  ultralytics.nn.modules.block.C2f             [192, 128, 1]                 
m_.i: 16, m_.f: -1, m_.type: ultralytics.nn.modules.block.SCDown
 12                  -1  1     18048  ultralytics.nn.modules.block.SCDown          [128, 128, 3, 2]              
m_.i: 17, m_.f: [-1, 6], m_.type: ultralytics.nn.modules.conv.Concat
 13             [-1, 6]  1         0  ultralytics.nn.modules.conv.Concat           [1]                           
m_.i: 18, m_.f: -1, m_.type: ultralytics.nn.modules.block.C2fCIB
 14                  -1  1    282624  ultralytics.nn.modules.block.C2fCIB          [384, 256, 1, True, True]     
f: [12, 15, 18], ch: [0, 32, 64, 96, 128, 256, 256, 256, 352, 128, 128, 192, 64, 64, 192, 128, 128, 384, 256]
m_.i: 19, m_.f: [12, 15, 18], m_.type: ultralytics.nn.modules.head.Detect
 15        [12, 15, 18]  1    432622  ultralytics.nn.modules.head.Detect           [10, [64, 128, 256]]          
YOLOv8_MobileNetv4 summary: 397 layers, 3,892,430 parameters, 3,892,414 gradients, 6.8 GFLOPs

Freezing layer 'model.15.dfl.conv.weight'
[34m[1mAMP: [0mrunning Automatic Mixed Precision (AMP) checks with YOLO11n...
Downloading https://github.com/ultralytics/assets/releases/download/v8.3.0/yolo11n.pt to 'yolo11n.pt'...
  0%|          | 0.00/5.35M [00:00<?, ?B/s] 23%|██▎       | 1.25M/5.35M [00:00<00:00, 10.8MB/s]100%|██████████| 5.35M/5.35M [00:00<00:00, 27.5MB/s]
…
